…
OUTPUT: output/300e/mlla_mini/baseline
PRINT_FREQ: 100
SAVE_FREQ: 1
SEED: 0
TAG: baseline
TEST:
  CROP: true
THROUGHPUT_MODE: false
TRAIN:
  AUTO_RESUME: true
  BASE_LR: 0.001
  CLIP_GRAD: 5.0
  COOLDOWN_EPOCHS: 0
  EPOCHS: 300
  LR_SCHEDULER:
    DECAY_EPOCHS: 30
    DECAY_RATE: 0.1
    NAME: cosine
  MIN_LR: 1.0e-05
  OPTIMIZER:
    BETAS:
    - 0.9
    - 0.999
    EPS: 1.0e-08
    MOMENTUM: 0.9
    NAME: adamw
  START_EPOCH: 0
  USE_CHECKPOINT: false
  WARMUP_EPOCHS: 20
  WARMUP_LR: 1.0e-06
  WEIGHT_DECAY: 0.05

Creating model:mlla/mlla_mini
MLLA(
  (patch_embed): Stem(
    (conv1): ConvLayer(
      (conv): Conv2d(3, 24, kernel_size=(3, 3), stride=(2, 2), padding=(1, 1), bias=False)
      (norm): BatchNorm2d(24, eps=1e-05, momentum=0.1, affine=True, track_running_stats=True)
      (act): ReLU()
    )
    (conv2): Sequential(
      (0): ConvLayer(
        (conv): Conv2d(24, 24, kernel_size=(3, 3), stride=(1, 1), padding=(1, 1), bias=False)
        (norm): BatchNorm2d(24, eps=1e-05, momentum=0.1, affine=True, track_running_stats=True)
        (act): ReLU()
      )
      (1): ConvLayer(
        (conv): Conv2d(24, 24, kernel_size=(3, 3), stride=(1, 1), padding=(1, 1), bias=False)
        (norm): BatchNorm2d(24, eps=1e-05, momentum=0.1, affine=True, track_running_stats=True)
      )
    )
    (conv3): Sequential(
      (0): ConvLayer(
        (conv): Conv2d(24, 192, kernel_size=(3, 3), stride=(2, 2), padding=(1, 1), bias=False)
        (norm): BatchNorm2d(192, eps=1e-05, momentum=0.1, affine=True, track_running_stats=True)
        (act): ReLU()
      )
      (1): ConvLayer(
        (conv): Conv2d(192, 48, kernel_size=(1, 1), stride=(1, 1), bias=False)
        (norm): BatchNorm2d(48, eps=1e-05, momentum=0.1, affine=True, track_running_stats=True)
      )
    )
  )
  (pos_drop): Dropout(p=0.0, inplace=False)
  (layers): ModuleList(
    (0): BasicLayer(
      dim=48, input_resolution=(64, 64), depth=2
      (blocks): ModuleList(
        (0-1): 2 x MLLABlock(
          dim=48, input_resolution=(64, 64), num_heads=2, mlp_ratio=4.0
          (cpe1): Conv2d(48, 48, kernel_size=(3, 3), stride=(1, 1), padding=(1, 1), groups=48)
          (norm1): LayerNorm((48,), eps=1e-05, elementwise_affine=True)
          (in_proj): Linear(in_features=48, out_features=48, bias=True)
          (act_proj): Linear(in_features=48, out_features=48, bias=True)
          (dwc): Conv2d(48, 48, kernel_size=(3, 3), stride=(1, 1), padding=(1, 1), groups=48)
          (act): SiLU()
          (attn): LinearAttention(
            dim=48, num_heads=2
            (qk): Linear(in_features=48, out_features=96, bias=True)
            (elu): ELU(alpha=1.0)
            (lepe): Conv2d(48, 48, kernel_size=(3, 3), stride=(1, 1), padding=(1, 1), groups=48)
            (rope): RoPE()
          )
          (out_proj): Linear(in_features=48, out_features=48, bias=True)
          (drop_path): Identity()
          (cpe2): Conv2d(48, 48, kernel_size=(3, 3), stride=(1, 1), padding=(1, 1), groups=48)
          (norm2): LayerNorm((48,), eps=1e-05, elementwise_affine=True)
          (mlp): Mlp(
            (fc1): Linear(in_features=48, out_features=192, bias=True)
            (act): GELU(approximate='none')
            (fc2): Linear(in_features=192, out_features=48, bias=True)
            (drop): Dropout(p=0.0, inplace=False)
          )
        )
      )
      (downsample): PatchMerging(
        (conv): Sequential(
          (0): ConvLayer(
            (conv): Conv2d(48, 384, kernel_size=(1, 1), stride=(1, 1))
            (act): ReLU()
          )
          (1): ConvLayer(
            (conv): Conv2d(384, 384, kernel_size=(3, 3), stride=(2, 2), padding=(1, 1), groups=384)
            (act): ReLU()
          )
          (2): ConvLayer(
            (conv): Conv2d(384, 96, kernel_size=(1, 1), stride=(1, 1))
            (norm): BatchNorm2d(96, eps=1e-05, momentum=0.1, affine=True, track_running_stats=True)
          )
        )
      )
    )
    (1): BasicLayer(
      dim=96, input_resolution=(32, 32), depth=4
      (blocks): ModuleList(
        (0-3): 4 x MLLABlock(
          dim=96, input_resolution=(32, 32), num_heads=4, mlp_ratio=4.0
          (cpe1): Conv2d(96, 96, kernel_size=(3, 3), stride=(1, 1), padding=(1, 1), groups=96)
          (norm1): LayerNorm((96,), eps=1e-05, elementwise_affine=True)
          (in_proj): Linear(in_features=96, out_features=96, bias=True)
          (act_proj): Linear(in_features=96, out_features=96, bias=True)
          (dwc): Conv2d(96, 96, kernel_size=(3, 3), stride=(1, 1), padding=(1, 1), groups=96)
          (act): SiLU()
          (attn): LinearAttention(
            dim=96, num_heads=4
            (qk): Linear(in_features=96, out_features=192, bias=True)
            (elu): ELU(alpha=1.0)
            (lepe): Conv2d(96, 96, kernel_size=(3, 3), stride=(1, 1), padding=(1, 1), groups=96)
            (rope): RoPE()
          )
          (out_proj): Linear(in_features=96, out_features=96, bias=True)
          (drop_path): Identity()
          (cpe2): Conv2d(96, 96, kernel_size=(3, 3), stride=(1, 1), padding=(1, 1), groups=96)
          (norm2): LayerNorm((96,), eps=1e-05, elementwise_affine=True)
          (mlp): Mlp(
            (fc1): Linear(in_features=96, out_features=384, bias=True)
            (act): GELU(approximate='none')
            (fc2): Linear(in_features=384, out_features=96, bias=True)
            (drop): Dropout(p=0.0, inplace=False)
          )
        )
      )
      (downsample): PatchMerging(
        (conv): Sequential(
          (0): ConvLayer(
            (conv): Conv2d(96, 768, kernel_size=(1, 1), stride=(1, 1))
            (act): ReLU()
          )
          (1): ConvLayer(
            (conv): Conv2d(768, 768, kernel_size=(3, 3), stride=(2, 2), padding=(1, 1), groups=768)
            (act): ReLU()
          )
          (2): ConvLayer(
            (conv): Conv2d(768, 192, kernel_size=(1, 1), stride=(1, 1))
            (norm): BatchNorm2d(192, eps=1e-05, momentum=0.1, affine=True, track_running_stats=True)
          )
        )
      )
    )
    (2): BasicLayer(
      dim=192, input_resolution=(16, 16), depth=8
      (blocks): ModuleList(
        (0-7): 8 x MLLABlock(
          dim=192, input_resolution=(16, 16), num_heads=8, mlp_ratio=4.0
          (cpe1): Conv2d(192, 192, kernel_size=(3, 3), stride=(1, 1), padding=(1, 1), groups=192)
          (norm1): LayerNorm((192,), eps=1e-05, elementwise_affine=True)
          (in_proj): Linear(in_features=192, out_features=192, bias=True)
          (act_proj): Linear(in_features=192, out_features=192, bias=True)
          (dwc): Conv2d(192, 192, kernel_size=(3, 3), stride=(1, 1), padding=(1, 1), groups=192)
          (act): SiLU()
          (attn): LinearAttention(
            dim=192, num_heads=8
            (qk): Linear(in_features=192, out_features=384, bias=True)
            (elu): ELU(alpha=1.0)
            (lepe): Conv2d(192, 192, kernel_size=(3, 3), stride=(1, 1), padding=(1, 1), groups=192)
            (rope): RoPE()
          )
          (out_proj): Linear(in_features=192, out_features=192, bias=True)
          (drop_path): Identity()
          (cpe2): Conv2d(192, 192, kernel_size=(3, 3), stride=(1, 1), padding=(1, 1), groups=192)
          (norm2): LayerNorm((192,), eps=1e-05, elementwise_affine=True)
          (mlp): Mlp(
            (fc1): Linear(in_features=192, out_features=768, bias=True)
            (act): GELU(approximate='none')
            (fc2): Linear(in_features=768, out_features=192, bias=True)
            (drop): Dropout(p=0.0, inplace=False)
          )
        )
      )
      (downsample): PatchMerging(
        (conv): Sequential(
          (0): ConvLayer(
            (conv): Conv2d(192, 1536, kernel_size=(1, 1), stride=(1, 1))
            (act): ReLU()
          )
          (1): ConvLayer(
            (conv): Conv2d(1536, 1536, kernel_size=(3, 3), stride=(2, 2), padding=(1, 1), groups=1536)
            (act): ReLU()
          )
          (2): ConvLayer(
            (conv): Conv2d(1536, 384, kernel_size=(1, 1), stride=(1, 1))
            (norm): BatchNorm2d(384, eps=1e-05, momentum=0.1, affine=True, track_running_stats=True)
          )
        )
      )
    )
    (3): BasicLayer(
      dim=384, input_resolution=(8, 8), depth=4
      (blocks): ModuleList(
        (0-3): 4 x MLLABlock(
          dim=384, input_resolution=(8, 8), num_heads=16, mlp_ratio=4.0
          (cpe1): Conv2d(384, 384, kernel_size=(3, 3), stride=(1, 1), padding=(1, 1), groups=384)
          (norm1): LayerNorm((384,), eps=1e-05, elementwise_affine=True)
          (in_proj): Linear(in_features=384, out_features=384, bias=True)
          (act_proj): Linear(in_features=384, out_features=384, bias=True)
          (dwc): Conv2d(384, 384, kernel_size=(3, 3), stride=(1, 1), padding=(1, 1), groups=384)
          (act): SiLU()
          (attn): LinearAttention(
            dim=384, num_heads=16
            (qk): Linear(in_features=384, out_features=768, bias=True)
            (elu): ELU(alpha=1.0)
            (lepe): Conv2d(384, 384, kernel_size=(3, 3), stride=(1, 1), padding=(1, 1), groups=384)
            (rope): RoPE()
          )
          (out_proj): Linear(in_features=384, out_features=384, bias=True)
          (drop_path): Identity()
          (cpe2): Conv2d(384, 384, kernel_size=(3, 3), stride=(1, 1), padding=(1, 1), groups=384)
          (norm2): LayerNorm((384,), eps=1e-05, elementwise_affine=True)
          (mlp): Mlp(
            (fc1): Linear(in_features=384, out_features=1536, bias=True)
            (act): GELU(approximate='none')
            (fc2): Linear(in_features=1536, out_features=384, bias=True)
            (drop): Dropout(p=0.0, inplace=False)
          )
        )
      )
    )
  )
  (norm): LayerNorm((384,), eps=1e-05, elementwise_affine=True)
  (avgpool): AdaptiveAvgPool1d(output_size=1)
  (head): Linear(in_features=384, out_features=1000, bias=True)
)

EPOCH 1
 * Acc@1 1.150 Acc@5 4.864
Accuracy of the network on the 50000 test images: 1.1%
 * Acc@1 0.100 Acc@5 0.500
Accuracy of the ema network on the 50000 test images: 0.1%
--
EPOCH 2
 * Acc@1 3.880 Acc@5 12.552
Accuracy of the network on the 50000 test images: 3.9%
 * Acc@1 0.100 Acc@5 0.500
Accuracy of the ema network on the 50000 test images: 0.1%
…
