…
OUTPUT: output/300e/mlla_mini/recattn_nearest_interp_simplify
PRINT_FREQ: 100
SAVE_FREQ: 1
SEED: 0
TAG: recattn_nearest_interp_simplify
TEST:
  CROP: true
THROUGHPUT_MODE: false
TRAIN:
  AUTO_RESUME: true
  BASE_LR: 0.001
  CLIP_GRAD: 5.0
  COOLDOWN_EPOCHS: 0
  EPOCHS: 300
  LR_SCHEDULER:
    DECAY_EPOCHS: 30
    DECAY_RATE: 0.1
    NAME: cosine
  MIN_LR: 1.0e-05
  OPTIMIZER:
    BETAS:
    - 0.9
    - 0.999
    EPS: 1.0e-08
    MOMENTUM: 0.9
    NAME: adamw
  START_EPOCH: 0
  USE_CHECKPOINT: false
  WARMUP_EPOCHS: 20
  WARMUP_LR: 1.0e-06
  WEIGHT_DECAY: 0.05

Creating model:mlla/mlla_mini
MLLA(
  (patch_embed): Stem(
    (conv1): ConvLayer(
      (conv): Conv2d(3, 24, kernel_size=(3, 3), stride=(2, 2), padding=(1, 1), bias=False)
      (norm): BatchNorm2d(24, eps=1e-05, momentum=0.1, affine=True, track_running_stats=True)
      (act): ReLU()
    )
    (conv2): Sequential(
      (0): ConvLayer(
        (conv): Conv2d(24, 24, kernel_size=(3, 3), stride=(1, 1), padding=(1, 1), bias=False)
        (norm): BatchNorm2d(24, eps=1e-05, momentum=0.1, affine=True, track_running_stats=True)
        (act): ReLU()
      )
      (1): ConvLayer(
        (conv): Conv2d(24, 24, kernel_size=(3, 3), stride=(1, 1), padding=(1, 1), bias=False)
        (norm): BatchNorm2d(24, eps=1e-05, momentum=0.1, affine=True, track_running_stats=True)
      )
    )
    (conv3): Sequential(
      (0): ConvLayer(
        (conv): Conv2d(24, 192, kernel_size=(3, 3), stride=(2, 2), padding=(1, 1), bias=False)
        (norm): BatchNorm2d(192, eps=1e-05, momentum=0.1, affine=True, track_running_stats=True)
        (act): ReLU()
      )
      (1): ConvLayer(
        (conv): Conv2d(192, 48, kernel_size=(1, 1), stride=(1, 1), bias=False)
        (norm): BatchNorm2d(48, eps=1e-05, momentum=0.1, affine=True, track_running_stats=True)
      )
    )
  )
  (pos_drop): Dropout(p=0.0, inplace=False)
  (layers): ModuleList(
    (0): BasicLayer(
      dim=48, level=1, depth=2
      (blocks): ModuleList(
        (0): MLLABlock(
          dim=48, mlp_ratio=4.0, level=1, downsample=False
          (cpe1): Conv2d(48, 48, kernel_size=(5, 5), stride=(1, 1), padding=(2, 2), groups=48)
          (norm1): LayerNorm((48,), eps=1e-05, elementwise_affine=True)
          (i_proj): Linear(in_features=48, out_features=96, bias=True)
          (o_proj): Conv2d(48, 48, kernel_size=(1, 1), stride=(1, 1))
          (act): SiLU()
          (agg): RecAttn2d(
            (down): Sequential(
              (0): Conv2d(48, 48, kernel_size=(5, 5), stride=(2, 2), padding=(2, 2), groups=48)
              (1): LinearAttention(
                dim=48, num_heads=2
                (qk): Conv2d(48, 96, kernel_size=(1, 1), stride=(1, 1), groups=2)
                (elu): ELU(alpha=1.0)
                (lepe): Conv2d(48, 48, kernel_size=(3, 3), stride=(1, 1), padding=(1, 1), groups=48)
              )
              (2): Upsample(scale_factor=2.0, mode='nearest')
            )
            (conv): Conv2d(48, 48, kernel_size=(5, 5), stride=(1, 1), padding=(2, 2), groups=48)
          )
          (cpe2): Conv2d(48, 48, kernel_size=(3, 3), stride=(1, 1), padding=(1, 1), groups=48)
          (norm2): LayerNorm((48,), eps=1e-05, elementwise_affine=True)
          (mlp): Mlp(
            (fc1): Linear(in_features=48, out_features=192, bias=True)
            (act): GELU(approximate='none')
            (fc2): Linear(in_features=192, out_features=48, bias=True)
            (drop): Dropout(p=0.0, inplace=False)
          )
          (drop_path): Identity()
        )
        (1): MLLABlock(
          dim=48, mlp_ratio=4.0, level=1, downsample=False
          (cpe1): Conv2d(48, 48, kernel_size=(5, 5), stride=(1, 1), padding=(2, 2), groups=48)
          (norm1): LayerNorm((48,), eps=1e-05, elementwise_affine=True)
          (i_proj): Linear(in_features=48, out_features=96, bias=True)
          (o_proj): Conv2d(48, 48, kernel_size=(1, 1), stride=(1, 1))
          (act): SiLU()
          (agg): RecAttn2d(
            (down): Sequential(
              (0): Conv2d(48, 48, kernel_size=(5, 5), stride=(2, 2), padding=(2, 2), groups=48)
              (1): LinearAttention(
                dim=48, num_heads=2
                (qk): Conv2d(48, 96, kernel_size=(1, 1), stride=(1, 1), groups=2)
                (elu): ELU(alpha=1.0)
                (lepe): Conv2d(48, 48, kernel_size=(3, 3), stride=(1, 1), padding=(1, 1), groups=48)
              )
              (2): Upsample(scale_factor=2.0, mode='nearest')
            )
            (conv): Conv2d(48, 48, kernel_size=(5, 5), stride=(1, 1), padding=(2, 2), groups=48)
          )
          (cpe2): Conv2d(48, 48, kernel_size=(3, 3), stride=(1, 1), padding=(1, 1), groups=48)
          (norm2): LayerNorm((48,), eps=1e-05, elementwise_affine=True)
          (mlp): Mlp(
            (fc1): Linear(in_features=48, out_features=192, bias=True)
            (act): GELU(approximate='none')
            (fc2): Linear(in_features=192, out_features=48, bias=True)
            (drop): Dropout(p=0.0, inplace=False)
          )
          (drop_path): DropPath(drop_prob=0.012)
        )
      )
      (downsample): MLLABlock(
        dim=48, mlp_ratio=4.0, level=0, downsample=True
        (cpe1): Conv2d(48, 96, kernel_size=(5, 5), stride=(2, 2), padding=(2, 2), groups=48)
        (norm1): LayerNorm((96,), eps=1e-05, elementwise_affine=True)
        (i_proj): Linear(in_features=96, out_features=192, bias=True)
        (o_proj): Conv2d(96, 96, kernel_size=(1, 1), stride=(1, 1))
        (act): SiLU()
        (agg): RecAttn2d(
          (down): Sequential(
            (0): Conv2d(96, 96, kernel_size=(5, 5), stride=(2, 2), padding=(2, 2), groups=96)
            (1): LinearAttention(
              dim=96, num_heads=2
              (qk): Conv2d(96, 192, kernel_size=(1, 1), stride=(1, 1), groups=2)
              (elu): ELU(alpha=1.0)
              (lepe): Conv2d(96, 96, kernel_size=(3, 3), stride=(1, 1), padding=(1, 1), groups=96)
            )
            (2): Upsample(scale_factor=2.0, mode='nearest')
          )
          (conv): Conv2d(96, 96, kernel_size=(5, 5), stride=(1, 1), padding=(2, 2), groups=96)
        )
        (cpe2): Conv2d(96, 96, kernel_size=(3, 3), stride=(1, 1), padding=(1, 1), groups=96)
        (norm2): LayerNorm((96,), eps=1e-05, elementwise_affine=True)
        (mlp): Mlp(
          (fc1): Linear(in_features=96, out_features=384, bias=True)
          (act): GELU(approximate='none')
          (fc2): Linear(in_features=384, out_features=96, bias=True)
          (drop): Dropout(p=0.0, inplace=False)
        )
        (drop_path): DropPath(drop_prob=0.012)
      )
    )
    (1): BasicLayer(
      dim=96, level=0, depth=4
      (blocks): ModuleList(
        (0): MLLABlock(
          dim=96, mlp_ratio=4.0, level=0, downsample=False
          (cpe1): Conv2d(96, 96, kernel_size=(5, 5), stride=(1, 1), padding=(2, 2), groups=96)
          (norm1): LayerNorm((96,), eps=1e-05, elementwise_affine=True)
          (i_proj): Linear(in_features=96, out_features=192, bias=True)
          (o_proj): Conv2d(96, 96, kernel_size=(1, 1), stride=(1, 1))
          (act): SiLU()
          (agg): RecAttn2d(
            (down): Sequential(
              (0): Conv2d(96, 96, kernel_size=(5, 5), stride=(2, 2), padding=(2, 2), groups=96)
              (1): LinearAttention(
                dim=96, num_heads=4
                (qk): Conv2d(96, 192, kernel_size=(1, 1), stride=(1, 1), groups=2)
                (elu): ELU(alpha=1.0)
                (lepe): Conv2d(96, 96, kernel_size=(3, 3), stride=(1, 1), padding=(1, 1), groups=96)
              )
              (2): Upsample(scale_factor=2.0, mode='nearest')
            )
            (conv): Conv2d(96, 96, kernel_size=(5, 5), stride=(1, 1), padding=(2, 2), groups=96)
          )
          (cpe2): Conv2d(96, 96, kernel_size=(3, 3), stride=(1, 1), padding=(1, 1), groups=96)
          (norm2): LayerNorm((96,), eps=1e-05, elementwise_affine=True)
          (mlp): Mlp(
            (fc1): Linear(in_features=96, out_features=384, bias=True)
            (act): GELU(approximate='none')
            (fc2): Linear(in_features=384, out_features=96, bias=True)
            (drop): Dropout(p=0.0, inplace=False)
          )
          (drop_path): DropPath(drop_prob=0.024)
        )
        (1): MLLABlock(
          dim=96, mlp_ratio=4.0, level=0, downsample=False
          (cpe1): Conv2d(96, 96, kernel_size=(5, 5), stride=(1, 1), padding=(2, 2), groups=96)
          (norm1): LayerNorm((96,), eps=1e-05, elementwise_affine=True)
          (i_proj): Linear(in_features=96, out_features=192, bias=True)
          (o_proj): Conv2d(96, 96, kernel_size=(1, 1), stride=(1, 1))
          (act): SiLU()
          (agg): RecAttn2d(
            (down): Sequential(
              (0): Conv2d(96, 96, kernel_size=(5, 5), stride=(2, 2), padding=(2, 2), groups=96)
              (1): LinearAttention(
                dim=96, num_heads=4
                (qk): Conv2d(96, 192, kernel_size=(1, 1), stride=(1, 1), groups=2)
                (elu): ELU(alpha=1.0)
                (lepe): Conv2d(96, 96, kernel_size=(3, 3), stride=(1, 1), padding=(1, 1), groups=96)
              )
              (2): Upsample(scale_factor=2.0, mode='nearest')
            )
            (conv): Conv2d(96, 96, kernel_size=(5, 5), stride=(1, 1), padding=(2, 2), groups=96)
          )
          (cpe2): Conv2d(96, 96, kernel_size=(3, 3), stride=(1, 1), padding=(1, 1), groups=96)
          (norm2): LayerNorm((96,), eps=1e-05, elementwise_affine=True)
          (mlp): Mlp(
            (fc1): Linear(in_features=96, out_features=384, bias=True)
            (act): GELU(approximate='none')
            (fc2): Linear(in_features=384, out_features=96, bias=True)
            (drop): Dropout(p=0.0, inplace=False)
          )
          (drop_path): DropPath(drop_prob=0.035)
        )
        (2): MLLABlock(
          dim=96, mlp_ratio=4.0, level=0, downsample=False
          (cpe1): Conv2d(96, 96, kernel_size=(5, 5), stride=(1, 1), padding=(2, 2), groups=96)
          (norm1): LayerNorm((96,), eps=1e-05, elementwise_affine=True)
          (i_proj): Linear(in_features=96, out_features=192, bias=True)
          (o_proj): Conv2d(96, 96, kernel_size=(1, 1), stride=(1, 1))
          (act): SiLU()
          (agg): RecAttn2d(
            (down): Sequential(
              (0): Conv2d(96, 96, kernel_size=(5, 5), stride=(2, 2), padding=(2, 2), groups=96)
              (1): LinearAttention(
                dim=96, num_heads=4
                (qk): Conv2d(96, 192, kernel_size=(1, 1), stride=(1, 1), groups=2)
                (elu): ELU(alpha=1.0)
                (lepe): Conv2d(96, 96, kernel_size=(3, 3), stride=(1, 1), padding=(1, 1), groups=96)
              )
              (2): Upsample(scale_factor=2.0, mode='nearest')
            )
            (conv): Conv2d(96, 96, kernel_size=(5, 5), stride=(1, 1), padding=(2, 2), groups=96)
          )
          (cpe2): Conv2d(96, 96, kernel_size=(3, 3), stride=(1, 1), padding=(1, 1), groups=96)
          (norm2): LayerNorm((96,), eps=1e-05, elementwise_affine=True)
          (mlp): Mlp(
            (fc1): Linear(in_features=96, out_features=384, bias=True)
            (act): GELU(approximate='none')
            (fc2): Linear(in_features=384, out_features=96, bias=True)
            (drop): Dropout(p=0.0, inplace=False)
          )
          (drop_path): DropPath(drop_prob=0.047)
        )
        (3): MLLABlock(
          dim=96, mlp_ratio=4.0, level=0, downsample=False
          (cpe1): Conv2d(96, 96, kernel_size=(5, 5), stride=(1, 1), padding=(2, 2), groups=96)
          (norm1): LayerNorm((96,), eps=1e-05, elementwise_affine=True)
          (i_proj): Linear(in_features=96, out_features=192, bias=True)
          (o_proj): Conv2d(96, 96, kernel_size=(1, 1), stride=(1, 1))
          (act): SiLU()
          (agg): RecAttn2d(
            (down): Sequential(
              (0): Conv2d(96, 96, kernel_size=(5, 5), stride=(2, 2), padding=(2, 2), groups=96)
              (1): LinearAttention(
                dim=96, num_heads=4
                (qk): Conv2d(96, 192, kernel_size=(1, 1), stride=(1, 1), groups=2)
                (elu): ELU(alpha=1.0)
                (lepe): Conv2d(96, 96, kernel_size=(3, 3), stride=(1, 1), padding=(1, 1), groups=96)
              )
              (2): Upsample(scale_factor=2.0, mode='nearest')
            )
            (conv): Conv2d(96, 96, kernel_size=(5, 5), stride=(1, 1), padding=(2, 2), groups=96)
          )
          (cpe2): Conv2d(96, 96, kernel_size=(3, 3), stride=(1, 1), padding=(1, 1), groups=96)
          (norm2): LayerNorm((96,), eps=1e-05, elementwise_affine=True)
          (mlp): Mlp(
            (fc1): Linear(in_features=96, out_features=384, bias=True)
            (act): GELU(approximate='none')
            (fc2): Linear(in_features=384, out_features=96, bias=True)
            (drop): Dropout(p=0.0, inplace=False)
          )
          (drop_path): DropPath(drop_prob=0.059)
        )
      )
      (downsample): MLLABlock(
        dim=96, mlp_ratio=4.0, level=-1, downsample=True
        (cpe1): Conv2d(96, 192, kernel_size=(5, 5), stride=(2, 2), padding=(2, 2), groups=96)
        (norm1): LayerNorm((192,), eps=1e-05, elementwise_affine=True)
        (i_proj): Linear(in_features=192, out_features=384, bias=True)
        (o_proj): Conv2d(192, 192, kernel_size=(1, 1), stride=(1, 1))
        (act): SiLU()
        (agg): RecAttn2d(
          (down): Sequential(
            (0): Conv2d(192, 192, kernel_size=(5, 5), stride=(2, 2), padding=(2, 2), groups=192)
            (1): LinearAttention(
              dim=192, num_heads=4
              (qk): Conv2d(192, 384, kernel_size=(1, 1), stride=(1, 1), groups=2)
              (elu): ELU(alpha=1.0)
              (lepe): Conv2d(192, 192, kernel_size=(3, 3), stride=(1, 1), padding=(1, 1), groups=192)
            )
            (2): Upsample(scale_factor=2.0, mode='nearest')
          )
          (conv): Conv2d(192, 192, kernel_size=(5, 5), stride=(1, 1), padding=(2, 2), groups=192)
        )
        (cpe2): Conv2d(192, 192, kernel_size=(3, 3), stride=(1, 1), padding=(1, 1), groups=192)
        (norm2): LayerNorm((192,), eps=1e-05, elementwise_affine=True)
        (mlp): Mlp(
          (fc1): Linear(in_features=192, out_features=768, bias=True)
          (act): GELU(approximate='none')
          (fc2): Linear(in_features=768, out_features=192, bias=True)
          (drop): Dropout(p=0.0, inplace=False)
        )
        (drop_path): DropPath(drop_prob=0.059)
      )
    )
    (2): BasicLayer(
      dim=192, level=-1, depth=8
      (blocks): ModuleList(
        (0): MLLABlock(
          dim=192, mlp_ratio=4.0, level=-1, downsample=False
          (cpe1): Conv2d(192, 192, kernel_size=(5, 5), stride=(1, 1), padding=(2, 2), groups=192)
          (norm1): LayerNorm((192,), eps=1e-05, elementwise_affine=True)
          (i_proj): Linear(in_features=192, out_features=384, bias=True)
          (o_proj): Conv2d(192, 192, kernel_size=(1, 1), stride=(1, 1))
          (act): SiLU()
          (agg): RecAttn2d(
            (down): Sequential(
              (0): Conv2d(192, 192, kernel_size=(5, 5), stride=(2, 2), padding=(2, 2), groups=192)
              (1): LinearAttention(
                dim=192, num_heads=8
                (qk): Conv2d(192, 384, kernel_size=(1, 1), stride=(1, 1), groups=2)
                (elu): ELU(alpha=1.0)
                (lepe): Conv2d(192, 192, kernel_size=(3, 3), stride=(1, 1), padding=(1, 1), groups=192)
              )
              (2): Upsample(scale_factor=2.0, mode='nearest')
            )
            (conv): Conv2d(192, 192, kernel_size=(5, 5), stride=(1, 1), padding=(2, 2), groups=192)
          )
          (cpe2): Conv2d(192, 192, kernel_size=(3, 3), stride=(1, 1), padding=(1, 1), groups=192)
          (norm2): LayerNorm((192,), eps=1e-05, elementwise_affine=True)
          (mlp): Mlp(
            (fc1): Linear(in_features=192, out_features=768, bias=True)
            (act): GELU(approximate='none')
            (fc2): Linear(in_features=768, out_features=192, bias=True)
            (drop): Dropout(p=0.0, inplace=False)
          )
          (drop_path): DropPath(drop_prob=0.071)
        )
        (1): MLLABlock(
          dim=192, mlp_ratio=4.0, level=-1, downsample=False
          (cpe1): Conv2d(192, 192, kernel_size=(5, 5), stride=(1, 1), padding=(2, 2), groups=192)
          (norm1): LayerNorm((192,), eps=1e-05, elementwise_affine=True)
          (i_proj): Linear(in_features=192, out_features=384, bias=True)
          (o_proj): Conv2d(192, 192, kernel_size=(1, 1), stride=(1, 1))
          (act): SiLU()
          (agg): RecAttn2d(
            (down): Sequential(
              (0): Conv2d(192, 192, kernel_size=(5, 5), stride=(2, 2), padding=(2, 2), groups=192)
              (1): LinearAttention(
                dim=192, num_heads=8
                (qk): Conv2d(192, 384, kernel_size=(1, 1), stride=(1, 1), groups=2)
                (elu): ELU(alpha=1.0)
                (lepe): Conv2d(192, 192, kernel_size=(3, 3), stride=(1, 1), padding=(1, 1), groups=192)
              )
              (2): Upsample(scale_factor=2.0, mode='nearest')
            )
            (conv): Conv2d(192, 192, kernel_size=(5, 5), stride=(1, 1), padding=(2, 2), groups=192)
          )
          (cpe2): Conv2d(192, 192, kernel_size=(3, 3), stride=(1, 1), padding=(1, 1), groups=192)
          (norm2): LayerNorm((192,), eps=1e-05, elementwise_affine=True)
          (mlp): Mlp(
            (fc1): Linear(in_features=192, out_features=768, bias=True)
            (act): GELU(approximate='none')
            (fc2): Linear(in_features=768, out_features=192, bias=True)
            (drop): Dropout(p=0.0, inplace=False)
          )
          (drop_path): DropPath(drop_prob=0.082)
        )
        (2): MLLABlock(
          dim=192, mlp_ratio=4.0, level=-1, downsample=False
          (cpe1): Conv2d(192, 192, kernel_size=(5, 5), stride=(1, 1), padding=(2, 2), groups=192)
          (norm1): LayerNorm((192,), eps=1e-05, elementwise_affine=True)
          (i_proj): Linear(in_features=192, out_features=384, bias=True)
          (o_proj): Conv2d(192, 192, kernel_size=(1, 1), stride=(1, 1))
          (act): SiLU()
          (agg): RecAttn2d(
            (down): Sequential(
              (0): Conv2d(192, 192, kernel_size=(5, 5), stride=(2, 2), padding=(2, 2), groups=192)
              (1): LinearAttention(
                dim=192, num_heads=8
                (qk): Conv2d(192, 384, kernel_size=(1, 1), stride=(1, 1), groups=2)
                (elu): ELU(alpha=1.0)
                (lepe): Conv2d(192, 192, kernel_size=(3, 3), stride=(1, 1), padding=(1, 1), groups=192)
              )
              (2): Upsample(scale_factor=2.0, mode='nearest')
            )
            (conv): Conv2d(192, 192, kernel_size=(5, 5), stride=(1, 1), padding=(2, 2), groups=192)
          )
          (cpe2): Conv2d(192, 192, kernel_size=(3, 3), stride=(1, 1), padding=(1, 1), groups=192)
          (norm2): LayerNorm((192,), eps=1e-05, elementwise_affine=True)
          (mlp): Mlp(
            (fc1): Linear(in_features=192, out_features=768, bias=True)
            (act): GELU(approximate='none')
            (fc2): Linear(in_features=768, out_features=192, bias=True)
            (drop): Dropout(p=0.0, inplace=False)
          )
          (drop_path): DropPath(drop_prob=0.094)
        )
        (3): MLLABlock(
          dim=192, mlp_ratio=4.0, level=-1, downsample=False
          (cpe1): Conv2d(192, 192, kernel_size=(5, 5), stride=(1, 1), padding=(2, 2), groups=192)
          (norm1): LayerNorm((192,), eps=1e-05, elementwise_affine=True)
          (i_proj): Linear(in_features=192, out_features=384, bias=True)
          (o_proj): Conv2d(192, 192, kernel_size=(1, 1), stride=(1, 1))
          (act): SiLU()
          (agg): RecAttn2d(
            (down): Sequential(
              (0): Conv2d(192, 192, kernel_size=(5, 5), stride=(2, 2), padding=(2, 2), groups=192)
              (1): LinearAttention(
                dim=192, num_heads=8
                (qk): Conv2d(192, 384, kernel_size=(1, 1), stride=(1, 1), groups=2)
                (elu): ELU(alpha=1.0)
                (lepe): Conv2d(192, 192, kernel_size=(3, 3), stride=(1, 1), padding=(1, 1), groups=192)
              )
              (2): Upsample(scale_factor=2.0, mode='nearest')
            )
            (conv): Conv2d(192, 192, kernel_size=(5, 5), stride=(1, 1), padding=(2, 2), groups=192)
          )
          (cpe2): Conv2d(192, 192, kernel_size=(3, 3), stride=(1, 1), padding=(1, 1), groups=192)
          (norm2): LayerNorm((192,), eps=1e-05, elementwise_affine=True)
          (mlp): Mlp(
            (fc1): Linear(in_features=192, out_features=768, bias=True)
            (act): GELU(approximate='none')
            (fc2): Linear(in_features=768, out_features=192, bias=True)
            (drop): Dropout(p=0.0, inplace=False)
          )
          (drop_path): DropPath(drop_prob=0.106)
        )
        (4): MLLABlock(
          dim=192, mlp_ratio=4.0, level=-1, downsample=False
          (cpe1): Conv2d(192, 192, kernel_size=(5, 5), stride=(1, 1), padding=(2, 2), groups=192)
          (norm1): LayerNorm((192,), eps=1e-05, elementwise_affine=True)
          (i_proj): Linear(in_features=192, out_features=384, bias=True)
          (o_proj): Conv2d(192, 192, kernel_size=(1, 1), stride=(1, 1))
          (act): SiLU()
          (agg): RecAttn2d(
            (down): Sequential(
              (0): Conv2d(192, 192, kernel_size=(5, 5), stride=(2, 2), padding=(2, 2), groups=192)
              (1): LinearAttention(
                dim=192, num_heads=8
                (qk): Conv2d(192, 384, kernel_size=(1, 1), stride=(1, 1), groups=2)
                (elu): ELU(alpha=1.0)
                (lepe): Conv2d(192, 192, kernel_size=(3, 3), stride=(1, 1), padding=(1, 1), groups=192)
              )
              (2): Upsample(scale_factor=2.0, mode='nearest')
            )
            (conv): Conv2d(192, 192, kernel_size=(5, 5), stride=(1, 1), padding=(2, 2), groups=192)
          )
          (cpe2): Conv2d(192, 192, kernel_size=(3, 3), stride=(1, 1), padding=(1, 1), groups=192)
          (norm2): LayerNorm((192,), eps=1e-05, elementwise_affine=True)
          (mlp): Mlp(
            (fc1): Linear(in_features=192, out_features=768, bias=True)
            (act): GELU(approximate='none')
            (fc2): Linear(in_features=768, out_features=192, bias=True)
            (drop): Dropout(p=0.0, inplace=False)
          )
          (drop_path): DropPath(drop_prob=0.118)
        )
        (5): MLLABlock(
          dim=192, mlp_ratio=4.0, level=-1, downsample=False
          (cpe1): Conv2d(192, 192, kernel_size=(5, 5), stride=(1, 1), padding=(2, 2), groups=192)
          (norm1): LayerNorm((192,), eps=1e-05, elementwise_affine=True)
          (i_proj): Linear(in_features=192, out_features=384, bias=True)
          (o_proj): Conv2d(192, 192, kernel_size=(1, 1), stride=(1, 1))
          (act): SiLU()
          (agg): RecAttn2d(
            (down): Sequential(
              (0): Conv2d(192, 192, kernel_size=(5, 5), stride=(2, 2), padding=(2, 2), groups=192)
              (1): LinearAttention(
                dim=192, num_heads=8
                (qk): Conv2d(192, 384, kernel_size=(1, 1), stride=(1, 1), groups=2)
                (elu): ELU(alpha=1.0)
                (lepe): Conv2d(192, 192, kernel_size=(3, 3), stride=(1, 1), padding=(1, 1), groups=192)
              )
              (2): Upsample(scale_factor=2.0, mode='nearest')
            )
            (conv): Conv2d(192, 192, kernel_size=(5, 5), stride=(1, 1), padding=(2, 2), groups=192)
          )
          (cpe2): Conv2d(192, 192, kernel_size=(3, 3), stride=(1, 1), padding=(1, 1), groups=192)
          (norm2): LayerNorm((192,), eps=1e-05, elementwise_affine=True)
          (mlp): Mlp(
            (fc1): Linear(in_features=192, out_features=768, bias=True)
            (act): GELU(approximate='none')
            (fc2): Linear(in_features=768, out_features=192, bias=True)
            (drop): Dropout(p=0.0, inplace=False)
          )
          (drop_path): DropPath(drop_prob=0.129)
        )
        (6): MLLABlock(
          dim=192, mlp_ratio=4.0, level=-1, downsample=False
          (cpe1): Conv2d(192, 192, kernel_size=(5, 5), stride=(1, 1), padding=(2, 2), groups=192)
          (norm1): LayerNorm((192,), eps=1e-05, elementwise_affine=True)
          (i_proj): Linear(in_features=192, out_features=384, bias=True)
          (o_proj): Conv2d(192, 192, kernel_size=(1, 1), stride=(1, 1))
          (act): SiLU()
          (agg): RecAttn2d(
            (down): Sequential(
              (0): Conv2d(192, 192, kernel_size=(5, 5), stride=(2, 2), padding=(2, 2), groups=192)
              (1): LinearAttention(
                dim=192, num_heads=8
                (qk): Conv2d(192, 384, kernel_size=(1, 1), stride=(1, 1), groups=2)
                (elu): ELU(alpha=1.0)
                (lepe): Conv2d(192, 192, kernel_size=(3, 3), stride=(1, 1), padding=(1, 1), groups=192)
              )
              (2): Upsample(scale_factor=2.0, mode='nearest')
            )
            (conv): Conv2d(192, 192, kernel_size=(5, 5), stride=(1, 1), padding=(2, 2), groups=192)
          )
          (cpe2): Conv2d(192, 192, kernel_size=(3, 3), stride=(1, 1), padding=(1, 1), groups=192)
          (norm2): LayerNorm((192,), eps=1e-05, elementwise_affine=True)
          (mlp): Mlp(
            (fc1): Linear(in_features=192, out_features=768, bias=True)
            (act): GELU(approximate='none')
            (fc2): Linear(in_features=768, out_features=192, bias=True)
            (drop): Dropout(p=0.0, inplace=False)
          )
          (drop_path): DropPath(drop_prob=0.141)
        )
        (7): MLLABlock(
          dim=192, mlp_ratio=4.0, level=-1, downsample=False
          (cpe1): Conv2d(192, 192, kernel_size=(5, 5), stride=(1, 1), padding=(2, 2), groups=192)
          (norm1): LayerNorm((192,), eps=1e-05, elementwise_affine=True)
          (i_proj): Linear(in_features=192, out_features=384, bias=True)
          (o_proj): Conv2d(192, 192, kernel_size=(1, 1), stride=(1, 1))
          (act): SiLU()
          (agg): RecAttn2d(
            (down): Sequential(
              (0): Conv2d(192, 192, kernel_size=(5, 5), stride=(2, 2), padding=(2, 2), groups=192)
              (1): LinearAttention(
                dim=192, num_heads=8
                (qk): Conv2d(192, 384, kernel_size=(1, 1), stride=(1, 1), groups=2)
                (elu): ELU(alpha=1.0)
                (lepe): Conv2d(192, 192, kernel_size=(3, 3), stride=(1, 1), padding=(1, 1), groups=192)
              )
              (2): Upsample(scale_factor=2.0, mode='nearest')
            )
            (conv): Conv2d(192, 192, kernel_size=(5, 5), stride=(1, 1), padding=(2, 2), groups=192)
          )
          (cpe2): Conv2d(192, 192, kernel_size=(3, 3), stride=(1, 1), padding=(1, 1), groups=192)
          (norm2): LayerNorm((192,), eps=1e-05, elementwise_affine=True)
          (mlp): Mlp(
            (fc1): Linear(in_features=192, out_features=768, bias=True)
            (act): GELU(approximate='none')
            (fc2): Linear(in_features=768, out_features=192, bias=True)
            (drop): Dropout(p=0.0, inplace=False)
          )
          (drop_path): DropPath(drop_prob=0.153)
        )
      )
      (downsample): MLLABlock(
        dim=192, mlp_ratio=4.0, level=-2, downsample=True
        (cpe1): Conv2d(192, 384, kernel_size=(5, 5), stride=(2, 2), padding=(2, 2), groups=192)
        (norm1): LayerNorm((384,), eps=1e-05, elementwise_affine=True)
        (i_proj): Linear(in_features=384, out_features=768, bias=True)
        (o_proj): Conv2d(384, 384, kernel_size=(1, 1), stride=(1, 1))
        (act): SiLU()
        (agg): RecAttn2d(
          (down): Sequential(
            (0): Conv2d(384, 384, kernel_size=(5, 5), stride=(2, 2), padding=(2, 2), groups=384)
            (1): LinearAttention(
              dim=384, num_heads=8
              (qk): Conv2d(384, 768, kernel_size=(1, 1), stride=(1, 1), groups=2)
              (elu): ELU(alpha=1.0)
              (lepe): Conv2d(384, 384, kernel_size=(3, 3), stride=(1, 1), padding=(1, 1), groups=384)
            )
            (2): Upsample(scale_factor=2.0, mode='nearest')
          )
          (conv): Conv2d(384, 384, kernel_size=(5, 5), stride=(1, 1), padding=(2, 2), groups=384)
        )
        (cpe2): Conv2d(384, 384, kernel_size=(3, 3), stride=(1, 1), padding=(1, 1), groups=384)
        (norm2): LayerNorm((384,), eps=1e-05, elementwise_affine=True)
        (mlp): Mlp(
          (fc1): Linear(in_features=384, out_features=1536, bias=True)
          (act): GELU(approximate='none')
          (fc2): Linear(in_features=1536, out_features=384, bias=True)
          (drop): Dropout(p=0.0, inplace=False)
        )
        (drop_path): DropPath(drop_prob=0.153)
      )
    )
    (3): BasicLayer(
      dim=384, level=-2, depth=4
      (blocks): ModuleList(
        (0): MLLABlock(
          dim=384, mlp_ratio=4.0, level=-2, downsample=False
          (cpe1): Conv2d(384, 384, kernel_size=(5, 5), stride=(1, 1), padding=(2, 2), groups=384)
          (norm1): LayerNorm((384,), eps=1e-05, elementwise_affine=True)
          (i_proj): Linear(in_features=384, out_features=768, bias=True)
          (o_proj): Conv2d(384, 384, kernel_size=(1, 1), stride=(1, 1))
          (act): SiLU()
          (agg): RecAttn2d(
            (down): Sequential(
              (0): Conv2d(384, 384, kernel_size=(5, 5), stride=(2, 2), padding=(2, 2), groups=384)
              (1): LinearAttention(
                dim=384, num_heads=16
                (qk): Conv2d(384, 768, kernel_size=(1, 1), stride=(1, 1), groups=2)
                (elu): ELU(alpha=1.0)
                (lepe): Conv2d(384, 384, kernel_size=(3, 3), stride=(1, 1), padding=(1, 1), groups=384)
              )
              (2): Upsample(scale_factor=2.0, mode='nearest')
            )
            (conv): Conv2d(384, 384, kernel_size=(5, 5), stride=(1, 1), padding=(2, 2), groups=384)
          )
          (cpe2): Conv2d(384, 384, kernel_size=(3, 3), stride=(1, 1), padding=(1, 1), groups=384)
          (norm2): LayerNorm((384,), eps=1e-05, elementwise_affine=True)
          (mlp): Mlp(
            (fc1): Linear(in_features=384, out_features=1536, bias=True)
            (act): GELU(approximate='none')
            (fc2): Linear(in_features=1536, out_features=384, bias=True)
            (drop): Dropout(p=0.0, inplace=False)
          )
          (drop_path): DropPath(drop_prob=0.165)
        )
        (1): MLLABlock(
          dim=384, mlp_ratio=4.0, level=-2, downsample=False
          (cpe1): Conv2d(384, 384, kernel_size=(5, 5), stride=(1, 1), padding=(2, 2), groups=384)
          (norm1): LayerNorm((384,), eps=1e-05, elementwise_affine=True)
          (i_proj): Linear(in_features=384, out_features=768, bias=True)
          (o_proj): Conv2d(384, 384, kernel_size=(1, 1), stride=(1, 1))
          (act): SiLU()
          (agg): RecAttn2d(
            (down): Sequential(
              (0): Conv2d(384, 384, kernel_size=(5, 5), stride=(2, 2), padding=(2, 2), groups=384)
              (1): LinearAttention(
                dim=384, num_heads=16
                (qk): Conv2d(384, 768, kernel_size=(1, 1), stride=(1, 1), groups=2)
                (elu): ELU(alpha=1.0)
                (lepe): Conv2d(384, 384, kernel_size=(3, 3), stride=(1, 1), padding=(1, 1), groups=384)
              )
              (2): Upsample(scale_factor=2.0, mode='nearest')
            )
            (conv): Conv2d(384, 384, kernel_size=(5, 5), stride=(1, 1), padding=(2, 2), groups=384)
          )
          (cpe2): Conv2d(384, 384, kernel_size=(3, 3), stride=(1, 1), padding=(1, 1), groups=384)
          (norm2): LayerNorm((384,), eps=1e-05, elementwise_affine=True)
          (mlp): Mlp(
            (fc1): Linear(in_features=384, out_features=1536, bias=True)
            (act): GELU(approximate='none')
            (fc2): Linear(in_features=1536, out_features=384, bias=True)
            (drop): Dropout(p=0.0, inplace=False)
          )
          (drop_path): DropPath(drop_prob=0.176)
        )
        (2): MLLABlock(
          dim=384, mlp_ratio=4.0, level=-2, downsample=False
          (cpe1): Conv2d(384, 384, kernel_size=(5, 5), stride=(1, 1), padding=(2, 2), groups=384)
          (norm1): LayerNorm((384,), eps=1e-05, elementwise_affine=True)
          (i_proj): Linear(in_features=384, out_features=768, bias=True)
          (o_proj): Conv2d(384, 384, kernel_size=(1, 1), stride=(1, 1))
          (act): SiLU()
          (agg): RecAttn2d(
            (down): Sequential(
              (0): Conv2d(384, 384, kernel_size=(5, 5), stride=(2, 2), padding=(2, 2), groups=384)
              (1): LinearAttention(
                dim=384, num_heads=16
                (qk): Conv2d(384, 768, kernel_size=(1, 1), stride=(1, 1), groups=2)
                (elu): ELU(alpha=1.0)
                (lepe): Conv2d(384, 384, kernel_size=(3, 3), stride=(1, 1), padding=(1, 1), groups=384)
              )
              (2): Upsample(scale_factor=2.0, mode='nearest')
            )
            (conv): Conv2d(384, 384, kernel_size=(5, 5), stride=(1, 1), padding=(2, 2), groups=384)
          )
          (cpe2): Conv2d(384, 384, kernel_size=(3, 3), stride=(1, 1), padding=(1, 1), groups=384)
          (norm2): LayerNorm((384,), eps=1e-05, elementwise_affine=True)
          (mlp): Mlp(
            (fc1): Linear(in_features=384, out_features=1536, bias=True)
            (act): GELU(approximate='none')
            (fc2): Linear(in_features=1536, out_features=384, bias=True)
            (drop): Dropout(p=0.0, inplace=False)
          )
          (drop_path): DropPath(drop_prob=0.188)
        )
        (3): MLLABlock(
          dim=384, mlp_ratio=4.0, level=-2, downsample=False
          (cpe1): Conv2d(384, 384, kernel_size=(5, 5), stride=(1, 1), padding=(2, 2), groups=384)
          (norm1): LayerNorm((384,), eps=1e-05, elementwise_affine=True)
          (i_proj): Linear(in_features=384, out_features=768, bias=True)
          (o_proj): Conv2d(384, 384, kernel_size=(1, 1), stride=(1, 1))
          (act): SiLU()
          (agg): RecAttn2d(
            (down): Sequential(
              (0): Conv2d(384, 384, kernel_size=(5, 5), stride=(2, 2), padding=(2, 2), groups=384)
              (1): LinearAttention(
                dim=384, num_heads=16
                (qk): Conv2d(384, 768, kernel_size=(1, 1), stride=(1, 1), groups=2)
                (elu): ELU(alpha=1.0)
                (lepe): Conv2d(384, 384, kernel_size=(3, 3), stride=(1, 1), padding=(1, 1), groups=384)
              )
              (2): Upsample(scale_factor=2.0, mode='nearest')
            )
            (conv): Conv2d(384, 384, kernel_size=(5, 5), stride=(1, 1), padding=(2, 2), groups=384)
          )
          (cpe2): Conv2d(384, 384, kernel_size=(3, 3), stride=(1, 1), padding=(1, 1), groups=384)
          (norm2): LayerNorm((384,), eps=1e-05, elementwise_affine=True)
          (mlp): Mlp(
            (fc1): Linear(in_features=384, out_features=1536, bias=True)
            (act): GELU(approximate='none')
            (fc2): Linear(in_features=1536, out_features=384, bias=True)
            (drop): Dropout(p=0.0, inplace=False)
          )
          (drop_path): DropPath(drop_prob=0.200)
        )
      )
      (downsample): Identity()
    )
  )
  (norm): LayerNorm((384,), eps=1e-05, elementwise_affine=True)
  (head): Linear(in_features=384, out_features=1000, bias=True)
)

EPOCH 1
 * Acc@1 0.412 Acc@5 1.708
Accuracy of the network on the 50000 test images: 0.4%
 * Acc@1 0.092 Acc@5 0.500
Accuracy of the ema network on the 50000 test images: 0.1%
--
EPOCH 2
 * Acc@1 3.110 Acc@5 10.312
Accuracy of the network on the 50000 test images: 3.1%
 * Acc@1 0.104 Acc@5 0.498
Accuracy of the ema network on the 50000 test images: 0.1%
…
