…
OUTPUT: output/300e/mlla_nano/recconv_5x5_nearest_interp
PRINT_FREQ: 100
SAVE_FREQ: 1
SEED: 0
TAG: recconv_5x5_nearest_interp
TEST:
  CROP: true
THROUGHPUT_MODE: false
TRAIN:
  AUTO_RESUME: true
  BASE_LR: 0.001
  CLIP_GRAD: 5.0
  COOLDOWN_EPOCHS: 0
  EPOCHS: 300
  LR_SCHEDULER:
    DECAY_EPOCHS: 30
    DECAY_RATE: 0.1
    NAME: cosine
  MIN_LR: 1.0e-05
  OPTIMIZER:
    BETAS:
    - 0.9
    - 0.999
    EPS: 1.0e-08
    MOMENTUM: 0.9
    NAME: adamw
  START_EPOCH: 0
  USE_CHECKPOINT: false
  WARMUP_EPOCHS: 20
  WARMUP_LR: 1.0e-06
  WEIGHT_DECAY: 0.05

Creating model:mlla/mlla_nano
MLLA(
  (patch_embed): Stem(
    (conv1): ConvLayer(
      (conv): Conv2d(3, 16, kernel_size=(3, 3), stride=(2, 2), padding=(1, 1), bias=False)
      (norm): BatchNorm2d(16, eps=1e-05, momentum=0.1, affine=True, track_running_stats=True)
      (act): ReLU()
    )
    (conv2): Sequential(
      (0): ConvLayer(
        (conv): Conv2d(16, 16, kernel_size=(3, 3), stride=(1, 1), padding=(1, 1), bias=False)
        (norm): BatchNorm2d(16, eps=1e-05, momentum=0.1, affine=True, track_running_stats=True)
        (act): ReLU()
      )
      (1): ConvLayer(
        (conv): Conv2d(16, 16, kernel_size=(3, 3), stride=(1, 1), padding=(1, 1), bias=False)
        (norm): BatchNorm2d(16, eps=1e-05, momentum=0.1, affine=True, track_running_stats=True)
      )
    )
    (conv3): Sequential(
      (0): ConvLayer(
        (conv): Conv2d(16, 128, kernel_size=(3, 3), stride=(2, 2), padding=(1, 1), bias=False)
        (norm): BatchNorm2d(128, eps=1e-05, momentum=0.1, affine=True, track_running_stats=True)
        (act): ReLU()
      )
      (1): ConvLayer(
        (conv): Conv2d(128, 32, kernel_size=(1, 1), stride=(1, 1), bias=False)
        (norm): BatchNorm2d(32, eps=1e-05, momentum=0.1, affine=True, track_running_stats=True)
      )
    )
  )
  (pos_drop): Dropout(p=0.0, inplace=False)
  (layers): ModuleList(
    (0): BasicLayer(
      dim=32, level=4, depth=2
      (blocks): ModuleList(
        (0-1): 2 x MLLABlock(
          dim=32, mlp_ratio=4.0, level=4, downsample=False, expansion_ratio=2.5
          (cpe1): Conv2d(32, 32, kernel_size=(5, 5), stride=(1, 1), padding=(2, 2), groups=32)
          (norm1): LayerNorm((32,), eps=1e-05, elementwise_affine=True)
          (i_proj): Linear(in_features=32, out_features=80, bias=True)
          (o_proj): Conv2d(40, 32, kernel_size=(1, 1), stride=(1, 1))
          (act): GELU(approximate='none')
          (agg): RecConv2d(
            (down): Conv2d(40, 40, kernel_size=(5, 5), stride=(2, 2), padding=(2, 2), groups=40, bias=False)
            (convs): ModuleList(
              (0-4): 5 x Conv2d(40, 40, kernel_size=(5, 5), stride=(1, 1), padding=(2, 2), groups=40, bias=False)
            )
            (up): Upsample(scale_factor=2.0, mode='nearest')
          )
          (cpe2): Conv2d(32, 32, kernel_size=(3, 3), stride=(1, 1), padding=(1, 1), groups=32)
          (norm2): LayerNorm((32,), eps=1e-05, elementwise_affine=True)
          (mlp): Mlp(
            (fc1): Linear(in_features=32, out_features=128, bias=True)
            (act): GELU(approximate='none')
            (fc2): Linear(in_features=128, out_features=32, bias=True)
            (drop): Dropout(p=0.0, inplace=False)
          )
          (drop_path): Identity()
        )
      )
      (downsample): MLLABlock(
        dim=32, mlp_ratio=4.0, level=3, downsample=True, expansion_ratio=2.5
        (cpe1): Conv2d(32, 64, kernel_size=(5, 5), stride=(2, 2), padding=(2, 2), groups=32)
        (norm1): LayerNorm((64,), eps=1e-05, elementwise_affine=True)
        (i_proj): Linear(in_features=64, out_features=160, bias=True)
        (o_proj): Conv2d(80, 64, kernel_size=(1, 1), stride=(1, 1))
        (act): GELU(approximate='none')
        (agg): RecConv2d(
          (down): Conv2d(80, 80, kernel_size=(5, 5), stride=(2, 2), padding=(2, 2), groups=80, bias=False)
          (convs): ModuleList(
            (0-3): 4 x Conv2d(80, 80, kernel_size=(5, 5), stride=(1, 1), padding=(2, 2), groups=80, bias=False)
          )
          (up): Upsample(scale_factor=2.0, mode='nearest')
        )
        (cpe2): Conv2d(64, 64, kernel_size=(3, 3), stride=(1, 1), padding=(1, 1), groups=64)
        (norm2): LayerNorm((64,), eps=1e-05, elementwise_affine=True)
        (mlp): Mlp(
          (fc1): Linear(in_features=64, out_features=256, bias=True)
          (act): GELU(approximate='none')
          (fc2): Linear(in_features=256, out_features=64, bias=True)
          (drop): Dropout(p=0.0, inplace=False)
        )
        (drop_path): Identity()
      )
    )
    (1): BasicLayer(
      dim=64, level=3, depth=2
      (blocks): ModuleList(
        (0-1): 2 x MLLABlock(
          dim=64, mlp_ratio=4.0, level=3, downsample=False, expansion_ratio=2.5
          (cpe1): Conv2d(64, 64, kernel_size=(5, 5), stride=(1, 1), padding=(2, 2), groups=64)
          (norm1): LayerNorm((64,), eps=1e-05, elementwise_affine=True)
          (i_proj): Linear(in_features=64, out_features=160, bias=True)
          (o_proj): Conv2d(80, 64, kernel_size=(1, 1), stride=(1, 1))
          (act): GELU(approximate='none')
          (agg): RecConv2d(
            (down): Conv2d(80, 80, kernel_size=(5, 5), stride=(2, 2), padding=(2, 2), groups=80, bias=False)
            (convs): ModuleList(
              (0-3): 4 x Conv2d(80, 80, kernel_size=(5, 5), stride=(1, 1), padding=(2, 2), groups=80, bias=False)
            )
            (up): Upsample(scale_factor=2.0, mode='nearest')
          )
          (cpe2): Conv2d(64, 64, kernel_size=(3, 3), stride=(1, 1), padding=(1, 1), groups=64)
          (norm2): LayerNorm((64,), eps=1e-05, elementwise_affine=True)
          (mlp): Mlp(
            (fc1): Linear(in_features=64, out_features=256, bias=True)
            (act): GELU(approximate='none')
            (fc2): Linear(in_features=256, out_features=64, bias=True)
            (drop): Dropout(p=0.0, inplace=False)
          )
          (drop_path): Identity()
        )
      )
      (downsample): MLLABlock(
        dim=64, mlp_ratio=4.0, level=2, downsample=True, expansion_ratio=2.5
        (cpe1): Conv2d(64, 128, kernel_size=(5, 5), stride=(2, 2), padding=(2, 2), groups=64)
        (norm1): LayerNorm((128,), eps=1e-05, elementwise_affine=True)
        (i_proj): Linear(in_features=128, out_features=320, bias=True)
        (o_proj): Conv2d(160, 128, kernel_size=(1, 1), stride=(1, 1))
        (act): GELU(approximate='none')
        (agg): RecConv2d(
          (down): Conv2d(160, 160, kernel_size=(5, 5), stride=(2, 2), padding=(2, 2), groups=160, bias=False)
          (convs): ModuleList(
            (0-2): 3 x Conv2d(160, 160, kernel_size=(5, 5), stride=(1, 1), padding=(2, 2), groups=160, bias=False)
          )
          (up): Upsample(scale_factor=2.0, mode='nearest')
        )
        (cpe2): Conv2d(128, 128, kernel_size=(3, 3), stride=(1, 1), padding=(1, 1), groups=128)
        (norm2): LayerNorm((128,), eps=1e-05, elementwise_affine=True)
        (mlp): Mlp(
          (fc1): Linear(in_features=128, out_features=512, bias=True)
          (act): GELU(approximate='none')
          (fc2): Linear(in_features=512, out_features=128, bias=True)
          (drop): Dropout(p=0.0, inplace=False)
        )
        (drop_path): Identity()
      )
    )
    (2): BasicLayer(
      dim=128, level=2, depth=4
      (blocks): ModuleList(
        (0-3): 4 x MLLABlock(
          dim=128, mlp_ratio=4.0, level=2, downsample=False, expansion_ratio=2.5
          (cpe1): Conv2d(128, 128, kernel_size=(5, 5), stride=(1, 1), padding=(2, 2), groups=128)
          (norm1): LayerNorm((128,), eps=1e-05, elementwise_affine=True)
          (i_proj): Linear(in_features=128, out_features=320, bias=True)
          (o_proj): Conv2d(160, 128, kernel_size=(1, 1), stride=(1, 1))
          (act): GELU(approximate='none')
          (agg): RecConv2d(
            (down): Conv2d(160, 160, kernel_size=(5, 5), stride=(2, 2), padding=(2, 2), groups=160, bias=False)
            (convs): ModuleList(
              (0-2): 3 x Conv2d(160, 160, kernel_size=(5, 5), stride=(1, 1), padding=(2, 2), groups=160, bias=False)
            )
            (up): Upsample(scale_factor=2.0, mode='nearest')
          )
          (cpe2): Conv2d(128, 128, kernel_size=(3, 3), stride=(1, 1), padding=(1, 1), groups=128)
          (norm2): LayerNorm((128,), eps=1e-05, elementwise_affine=True)
          (mlp): Mlp(
            (fc1): Linear(in_features=128, out_features=512, bias=True)
            (act): GELU(approximate='none')
            (fc2): Linear(in_features=512, out_features=128, bias=True)
            (drop): Dropout(p=0.0, inplace=False)
          )
          (drop_path): Identity()
        )
      )
      (downsample): MLLABlock(
        dim=128, mlp_ratio=4.0, level=1, downsample=True, expansion_ratio=2.5
        (cpe1): Conv2d(128, 256, kernel_size=(5, 5), stride=(2, 2), padding=(2, 2), groups=128)
        (norm1): LayerNorm((256,), eps=1e-05, elementwise_affine=True)
        (i_proj): Linear(in_features=256, out_features=640, bias=True)
        (o_proj): Conv2d(320, 256, kernel_size=(1, 1), stride=(1, 1))
        (act): GELU(approximate='none')
        (agg): RecConv2d(
          (down): Conv2d(320, 320, kernel_size=(5, 5), stride=(2, 2), padding=(2, 2), groups=320, bias=False)
          (convs): ModuleList(
            (0-1): 2 x Conv2d(320, 320, kernel_size=(5, 5), stride=(1, 1), padding=(2, 2), groups=320, bias=False)
          )
          (up): Upsample(scale_factor=2.0, mode='nearest')
        )
        (cpe2): Conv2d(256, 256, kernel_size=(3, 3), stride=(1, 1), padding=(1, 1), groups=256)
        (norm2): LayerNorm((256,), eps=1e-05, elementwise_affine=True)
        (mlp): Mlp(
          (fc1): Linear(in_features=256, out_features=1024, bias=True)
          (act): GELU(approximate='none')
          (fc2): Linear(in_features=1024, out_features=256, bias=True)
          (drop): Dropout(p=0.0, inplace=False)
        )
        (drop_path): Identity()
      )
    )
    (3): BasicLayer(
      dim=256, level=1, depth=2
      (blocks): ModuleList(
        (0-1): 2 x MLLABlock(
          dim=256, mlp_ratio=4.0, level=1, downsample=False, expansion_ratio=2.5
          (cpe1): Conv2d(256, 256, kernel_size=(5, 5), stride=(1, 1), padding=(2, 2), groups=256)
          (norm1): LayerNorm((256,), eps=1e-05, elementwise_affine=True)
          (i_proj): Linear(in_features=256, out_features=640, bias=True)
          (o_proj): Conv2d(320, 256, kernel_size=(1, 1), stride=(1, 1))
          (act): GELU(approximate='none')
          (agg): RecConv2d(
            (down): Conv2d(320, 320, kernel_size=(5, 5), stride=(2, 2), padding=(2, 2), groups=320, bias=False)
            (convs): ModuleList(
              (0-1): 2 x Conv2d(320, 320, kernel_size=(5, 5), stride=(1, 1), padding=(2, 2), groups=320, bias=False)
            )
            (up): Upsample(scale_factor=2.0, mode='nearest')
          )
          (cpe2): Conv2d(256, 256, kernel_size=(3, 3), stride=(1, 1), padding=(1, 1), groups=256)
          (norm2): LayerNorm((256,), eps=1e-05, elementwise_affine=True)
          (mlp): Mlp(
            (fc1): Linear(in_features=256, out_features=1024, bias=True)
            (act): GELU(approximate='none')
            (fc2): Linear(in_features=1024, out_features=256, bias=True)
            (drop): Dropout(p=0.0, inplace=False)
          )
          (drop_path): Identity()
        )
      )
      (downsample): Identity()
    )
  )
  (norm): LayerNorm((256,), eps=1e-05, elementwise_affine=True)
  (head): Linear(in_features=256, out_features=1000, bias=True)
)

EPOCH 1
 * Acc@1 0.460 Acc@5 2.264
Accuracy of the network on the 50000 test images: 0.5%
 * Acc@1 0.100 Acc@5 0.500
Accuracy of the ema network on the 50000 test images: 0.1%
--
EPOCH 2
 * Acc@1 2.652 Acc@5 9.424
Accuracy of the network on the 50000 test images: 2.7%
 * Acc@1 0.100 Acc@5 0.500
Accuracy of the ema network on the 50000 test images: 0.1%
…
